HandwrittenChemistryAndroid/app/src/main/ml/converted_model_v12.tflite (tflite, 937496 bytes, 10 tensors)

sequential/conv2d/Relu;sequential/conv2d/BiasAdd;sequential/conv2d/Conv2D;sequential/conv2d/BiasAdd/ReadVariableOp f4 [16, 3, 3, 1]
000000 8d e3 49 ba 05 2f b9 ba 44 df ff b8 a3 c3 6c ba
       -0.0007701449 -0.0014128393 -0.00012200934 -0.00090318377
000010 99 16 a2 b9 f6 ba b0 b9 3c 7c 4d 3a d3 a6 9d 3a
       -0.00030915884 -0.00033708633 0.0007838642 0.0012027867
000020 6b ab 45 3a 1a 86 a8 ba 57 4a fc b8 26 95 63 3a
       0.0007540497 -0.0012857348 -0.00012030143 0.00086815876
000030 da 5a 48 3a cc b4 38 bb 22 03 df 39 6c 58 67 3a
       0.00076429325 -0.0028183935 0.0004253621 0.00088251266
000040 84 d8 45 3a 79 55 6e ba 90 ca 63 b8 da 17 9e 38
       0.0007547217 -0.0009091716 -5.430967e-05 7.53847e-05
000050 8f 72 2d 3a 6b 7e 8b b9 18 a3 ac b9 7e 2c 6b 3a
       0.0006616497 -0.00026606335 -0.0003292791 0.00089711684
000060 ae 86 53 b9 4b ac 2e bb 3d 31 6b 39 7d fa 77 39
       -0.000201727 -0.0026652988 0.00022429689 0.0002364907
000070 81 e0 9c b9 7b f6 27 b7 9c f5 fd 35 47 3a f6 b9
       -0.00029921907 -1.0011364e-05 1.8921451e-06 -0.00046964196
000080 06 c3 f4 ba ac 06 6c 3a 59 01 d9 39 93 8c 5b b9
       -0.0018673844 0.000900368 0.0004139047 -0.00020937836
000090 e8 15 fb b9 ae 6c 5a 3a 31 9a 81 ba b8 7a 6f ba
       -0.00047890772 0.00083322346 -0.0009887872 -0.0009135413
0000a0 0c 72 51 3a 42 43 99 ba 53 83 84 3a 52 15 6d ba
       0.00079897116 -0.0011693018 0.0010109938 -0.00090440095
0000b0 db ff 32 3a 08 da 91 ba b9 11 bb ba 94 61 16 ba
       0.00068282866 -0.00111276 -0.001427225 -0.0005736586
0000c0 79 01 79 39 82 de 6b 3a 9c 0c 6a b6 76 86 47 3a
       0.00023747039 0.0008997695 -3.4876057e-06 0.0007611284
0000d0 d2 6f 1f 39 7b 37 42 ba 2b 4a 7f 3a d6 c5 08 3a
       0.00015205078 -0.000740878 0.000973853 0.0005217468
0000e0 19 e3 d0 ba 0c 71 69 ba 44 b5 26 bb 9d 19 c6 39
       -0.0015936821 -0.000890509 -0.0025437633 0.00037784586
0000f0 0e 7e d1 b6 40 da 13 3a 00 f0 5b 3a 53 00 9e 3a
       -6.24336e-06 0.0005640127 0.000838995 0.001205454
000100 26 5a dc ba 3e ab e2 ba 06 f4 d7 ba a1 7b 13 3a
       -0.0016811534 -0.0017293466 -0.0016475923 0.0005626027
000110 57 36 6c ba 61 85 1c b6 39 df 57 b9 75 4f 92 ba
       -0.0009010783 -2.3323448e-06 -0.00020587155 -0.0011162596
000120 04 cb 35 3a 13 78 58 ba 25 e4 60 37 1c 01 cc 39
       0.0006934854 -0.00082576385 1.34045595e-05 0.0003891074
000130 57 be 34 b8 43 50 24 3a 9e 6b 02 bb 46 20 30 b9
       -4.3092612e-05 0.00062680634 -0.001990057 -0.00016796691
000140 b4 35 63 b8 09 70 c0 ba 8d aa 21 ba 51 5e 9b ba
       -5.4171032e-05 -0.0014681827 -0.00061670766 -0.001185367
000150 f5 02 e9 b9 98 23 42 39 a6 c8 ba 3a b2 e6 75 ba
       -0.00044443426 0.00018514541 0.0014250472 -0.00093803846
000160 09 e7 37 ba a3 c2 9b b9 cb 83 45 39 df 18 78 ba
       -0.0007015323 -0.0002970892 0.00018836481 -0.00094641553
000170 cd 38 3f ba 77 77 84 3a 6a a7 6e bb ee 93 45 3a
       -0.0007294536 0.0010106404 -0.0036415705 0.0007536997
000180 dd 5b 03 3a 00 fb 1c bb ec 0e 4b 3a 72 61 0d 3a
       0.0005010942 -0.0023953319 0.0007746059 0.00053932436
000190 ba 37 ac 3a 91 bd f9 b7 8a fd 44 3a c9 b5 1a 3a
       0.0013139166 -2.9771387e-05 0.0007514587 0.0005901722
0001a0 17 d9 51 ba ee cb b1 ba 9e 0a b4 ba 6b c4 d6 b8
       -0.0008005066 -0.0013564804 -0.0013736074 -0.00010240901
0001b0 c5 b6 84 b9 ef ed 51 ba db cd 1c ba 1a f1 8d 3a
       -0.00025313176 -0.0008008172 -0.00059816026 0.00108293
0001c0 cf 9c 81 3a b4 ee de b9 00 b8 43 ba b8 d4 d9 ba
       0.0009888652 -0.00042520987 -0.0007466078 -0.0016619181
0001d0 70 0d 6e b9 52 b7 9f b7 d1 45 81 39 45 0c 1c b9
       -0.00022702455 -1.9039642e-05 0.00024656815 -0.0001488189
0001e0 a4 64 f2 39 ad ab a7 39 15 f8 f5 38 11 d0 38 b9
       0.0004623282 0.0003198063 0.00011728719 -0.00017625118
0001f0 aa 0c 33 b7 00 52 1c 38 01 ac 42 39 e7 ce a7 37
       -1.067218e-05 3.7269667e-05 0.00018565358 2.0004298e-05
000200 db 26 23 3a 74 a4 04 ba af 7e 71 b9 84 af 6c 39
       0.00062237465 -0.0005059906 -0.00023030744 0.00022572099
000210 00 25 30 b9 ef d3 46 ba 17 2e bf ba 7f 9d 8b ba
       -0.00016798452 -0.0007584681 -0.0014585879 -0.0010651796
000220 6f 78 bd 39 a2 4f 1e 3a b7 e0 1e ba 10 52 44 b8
       0.0003613862 0.0006039088 -0.0006060707 -4.6806468e-05
000230 c2 55 10 3a 07 30 0f ba 51 6a 12 b7 77 a2 0e 3a
       0.0005505943 -0.0005462174 -8.727032e-06 0.0005441079

sequential/conv2d/BiasAdd/ReadVariableOp f4 [16]
000000 fe 6a 00 be d0 15 0e be 71 27 96 3d 6a e5 e1 3d
       -0.12540814 -0.13875508 0.073317416 0.110300854
000010 b3 9e 03 be 11 8d 3e bd 30 9d af bd ab e9 5d bd
       -0.12853508 -0.04652125 -0.08574903 -0.05417792
000020 43 63 b9 bd 3b be 66 bd 86 59 c9 bd f9 10 69 bc
       -0.09052136 -0.05633376 -0.09831528 -0.014225238
000030 05 32 97 bc 71 15 81 bd 61 c0 c2 bd 64 e1 cb bc
       -0.018456468 -0.06302918 -0.095093496 -0.024887748

sequential/conv2d_1/BiasAdd/ReadVariableOp f4 [32]
000000 54 43 ac bd 8f 92 eb 3d 28 1a a2 bb 90 6f 1b be
       -0.08411279 0.11502563 -0.0049469657 -0.15179276
000010 75 8d 5b bd ab e9 e6 bd 42 5b 9c bd 8f bc a5 3e
       -0.0536017 -0.112750374 -0.076345935 0.3237042
000020 2d f6 a2 bc bd 8e 66 3d d2 2a aa 3d 25 62 2a be
       -0.019892776 0.05628847 0.083089486 -0.16639002
000030 74 b1 0b be 18 59 c2 3d 62 83 97 3c 6f 66 6d 3e
       -0.13641912 0.094896495 0.018495265 0.23183607
000040 51 f3 96 3d 0f 65 90 3d d2 ed ab 3d f2 24 40 3b
       0.07370628 0.070505254 0.0839497 0.0029318896
000050 63 03 42 bd 1e 31 2a bd 6b e6 fa bb b0 1a 81 bd
       -0.04736651 -0.041550748 -0.0076568625 -0.06303918
000060 81 92 90 be 22 d2 dd bd f1 10 fe bd b9 82 ea bd
       -0.28236774 -0.10831095 -0.12405575 -0.114507146
000070 15 20 a3 bd 2b 82 9a 3e 1a f2 23 be fd 25 3e be
       -0.079651035 0.30177435 -0.16010323 -0.18569179

sequential/conv2d_2/BiasAdd/ReadVariableOp f4 [64]
000000 c1 51 3b bd 35 01 86 bc 6f 73 a9 bd f8 4d 53 be
       -0.045732263 -0.016357997 -0.0827397 -0.20635211
000010 82 15 ca bc eb 49 82 be 4a 83 c6 3d ee be 81 bd
       -0.024668459 -0.2544702 0.0969301 -0.06335245
000020 16 d5 89 3d 2c 9c 6b bd 10 fe 03 bd 2d 31 d8 bd
       0.06730096 -0.057521984 -0.032224715 -0.105562545
000030 69 70 a7 3d 61 4c b9 3d bf ec 30 bb ac 51 2e bd
       0.081757374 0.09047771 -0.002699658 -0.042558357
000040 32 5d 17 bd dd d6 e0 bd 26 a5 a0 3c 6a 1e 01 be
       -0.036954112 -0.10978482 0.019609999 -0.12609258
000050 1f 3c 80 bd c5 55 eb 3d 58 ad b1 bd 94 a4 2f bd
       -0.06261467 0.114909686 -0.08675641 -0.042881563
000060 df 75 65 bd e5 60 a2 3e 86 4f d1 bc 15 dd ae bd
       -0.056020614 0.3171455 -0.025550615 -0.08538262
000070 03 79 e6 bd 51 d4 08 3d f6 8b 44 3e ee 7e 0a bd
       -0.1125355 0.033405606 0.19194016 -0.033812456
000080 47 9b 36 be 02 a4 b5 3c ae 61 fe 3b 73 de 8e bc
       -0.17832671 0.022172932 0.007763109 -0.017440056
000090 f7 86 18 3b ce ef 3d 3d 8e 22 a2 bd 76 12 9a bd
       0.0023273805 0.046371274 -0.07916747 -0.075230524
0000a0 ff 17 c6 bd 36 d5 98 be 00 27 d6 bd e0 05 b0 bd
       -0.09672546 -0.29850167 -0.104566574 -0.085948706
0000b0 cf c3 9c 3d e8 f7 87 3c 29 04 ff bd 2b 08 1a be
       0.07654535 0.016597703 -0.12451965 -0.15042178
0000c0 16 be 48 bd 1e 4a 71 be 51 12 44 3e db dd 7c be
       -0.049009405 -0.2356343 0.19147612 -0.24694006
0000d0 85 af ac bd 89 a9 fa bd 13 b1 c4 3c 90 1f 9b bd
       -0.08431915 -0.122393675 0.024010217 -0.075743794
0000e0 39 bc 60 bd 4b 26 4e 3d 2c 21 74 bd 5d 19 8c bd
       -0.054867003 0.050329488 -0.059601948 -0.06840775
0000f0 c5 3a 8a bc ee 65 82 bd ea d8 d4 bd 0c a2 4e bd
       -0.016873727 -0.06367098 -0.103929356 -0.05044751

sequential/conv2d_1/Conv2D f4 [32, 3, 3, 16]
000000 64 a5 17 be f3 cf 94 3d 7d 46 3e be 34 49 0b be
       -0.14809185 0.07266226 -0.18581577 -0.13602144
000010 be cd c8 3e ca 0f b9 3e b6 ef 9d 3e 2a 9b 3c bd
       0.3921947 0.3614486 0.30846947 -0.046046413
000020 47 85 79 be 07 24 69 3e 30 80 cd be 8d 8d d0 3d
       -0.24367248 0.2276765 -0.40136862 0.10183249
000030 8e 46 ad 3e ab 01 8a 3d 86 df db 3e 6f e8 54 3e
       0.3384289 0.067385994 0.42943972 0.20791791
000040 bb 92 b2 bd 64 b4 01 3d c0 d1 78 bc 66 14 b0 3d
       -0.08719393 0.031666175 -0.015186727 0.08597641
000050 38 72 9d 3e 73 86 72 be f2 8e 68 3e 4a ab 61 3e
       0.30751204 -0.23684101 0.2271078 0.22037998
000060 23 ec c2 3e 8b 14 e8 be 38 fb 4e 3e b7 61 7c 3e
       0.38070783 -0.45328173 0.2021302 0.2464665
000070 5f 23 5d 3e 0a 49 f1 3d b8 75 98 bd 1c 90 d8 be
       0.21595524 0.11781509 -0.07444328 -0.42297447
000080 25 c5 6d be 27 fc 8e bd 39 94 27 be 97 e7 4d be
       -0.23219736 -0.06981688 -0.16365136 -0.20107876
000090 6e 46 8d bc 52 a9 89 bc 31 86 26 bd 77 62 aa be
       -0.017245498 -0.016804371 -0.04065532 -0.33278248
0000a0 ce 43 1c be f0 9d 0c bb 1e 1f 0a be 1a 1e 24 be
       -0.1526024 -0.0021456443 -0.13488433 -0.16027108
0000b0 76 6d 03 be e6 7e c0 3c 6c ca b8 be a3 7b 2e bd
       -0.12834725 0.02349801 -0.36091936 -0.042598378
0000c0 95 c1 8d be a6 d5 9f 3e d3 0f 84 3e 8a ff 98 3d
       -0.27686754 0.31217688 0.25793323 0.07470615
0000d0 a9 bc 83 3b 1d 7f 76 bd 0d bb ca 3e 1c 19 7f 3e
       0.004020293 -0.06017982 0.39595833 0.24911922
0000e0 ab 54 cf 3d 42 21 ec be eb b6 cf 3e 1c 11 b9 3e
       0.10123571 -0.46119124 0.40569243 0.36145866
0000f0 f1 32 27 3e 25 e6 fd 3d 76 3f 4e be 07 b7 13 be
       0.16328026 0.12397412 -0.20141396 -0.14425288
000100 9b d3 64 3e 1d dd 96 be b7 09 f6 bd 9a 2c ec be
       0.22346346 -0.2946557 -0.12013572 -0.46127778
000110 40 d8 26 be a3 35 33 3e d8 ff 99 3e 9b 25 65 bd
       -0.1629343 0.1750093 0.30078006 -0.055944066
000120 b3 1d 29 3b 01 3e 35 3e ca 71 8a 3d ed 95 d8 3d
       0.0025805056 0.17699434 0.06759985 0.10575471
000130 04 f1 2d bf 52 41 67 be df 0e 3c bd 37 8e 6f 3e
       -0.67945886 -0.22583511 -0.04591262 0.23394094
000140 28 0a 0d 3d bb 4e 04 be 10 31 fd 3c d9 69 00 bf
       0.034433514 -0.12920658 0.030907184 -0.5016151
000150 50 3b 21 bd 09 07 b2 3d ae 4f 2f be 39 fd 13 bf
       -0.039363205 0.08692748 -0.17120239 -0.5780826
000160 f0 d7 38 be bb 0b a5 bd 08 df 08 3d 1a f9 32 be
       -0.18051124 -0.08058878 0.033415824 -0.17477837
000170 16 55 05 bf a5 0f b8 3c 77 b0 b2 bd 41 e1 b6 3e
       -0.52082956 0.022468397 -0.08725064 0.3571873
000180 53 31 47 3d 70 55 79 3e d5 33 93 bd af 6c 2f be
       0.048631024 0.24348998 -0.071876206 -0.17131303
000190 68 16 67 3d b6 00 8f be 3d 56 22 3e bd 05 93 3d
       0.056417853 -0.2793023 0.1585321 0.07178829
0001a0 1a 4c 91 be 93 ef 77 be 7c 38 22 3e 38 fa ea 3d
       -0.28378373 -0.24212484 0.1584186 0.11473507
0001b0 7d e8 3f be 24 e7 52 be 41 1a f4 3c 8d 2f 26 be
       -0.18741031 -0.20595986 0.029797675 -0.16229077
0001c0 01 3c 2f 3e 66 77 8a be 2e 9f 23 be 13 4e 49 bf
       0.17112733 -0.2704422 -0.15978691 -0.78634757
0001d0 f3 7e 62 be 84 95 1b be 28 ea 25 3d b4 b1 ad 3a
       -0.2211874 -0.15193754 0.040506512 0.0013251812
0001e0 1c cb 4d bc 8c be 79 3b 77 78 a1 bc 93 d4 ee be
       -0.012560632 0.003810796 -0.019710762 -0.46646556
0001f0 54 c1 80 be 3e 36 d3 bd b6 00 c9 be 8d a9 07 3d
       -0.25147498 -0.1031308 -0.39258355 0.03312068
000200 6d 05 88 3e 98 31 22 be 4d f1 b0 be fc bc 2d bf
       0.2656664 -0.15839231 -0.34559098 -0.6786649
000210 1a b5 b4 3e 60 d8 09 be 9a 56 ee 3d 63 1e 78 be
       0.3529442 -0.13461447 0.11637612 -0.24230342
000220 d7 c8 ae be 0a 79 4f 3e 12 4c 01 3b 14 34 4e 3e
       -0.34137604 0.20261016 0.001972918 0.20137054
000230 47 45 07 3e 63 08 d0 bd 81 4c a0 bd 08 ca 8e be
       0.13210021 -0.1015785 -0.07827092 -0.27888513
000240 38 dc 24 bc f1 d9 c8 be ea ab 0a 3e c9 ec 54 3e
       -0.01006227 -0.39228776 0.13542143 0.20793451
000250 a0 d0 80 bd d8 4d bd 3d 9a aa 84 bb 92 df 17 bf
       -0.06289792 0.09243363 -0.0040486576 -0.59325516
000260 ea 89 5b be bb 2c 0a bf fe c2 53 3e ce 88 6c be
       -0.21439329 -0.53974503 0.20679852 -0.23099062
000270 fe a4 a2 be 96 0c aa 3d d2 23 1d be 66 36 01 3f
       -0.31766504 0.08303182 -0.15345696 0.5047363
000280 4a 51 92 be 21 d4 fc 3c 85 f9 6f 3e d6 83 c9 be
       -0.28577644 0.03086287 0.23435028 -0.39358395
000290 36 7e ab bf 2f e6 3e be 46 d1 3c bd 66 ae 71 be
       -1.3397892 -0.18642496 -0.046098016 -0.23601684
0002a0 2a b5 88 3e a9 86 82 bd b7 c0 4e be d9 c0 47 bf
       0.26700717 -0.06373341 -0.20190702 -0.7802864
0002b0 af 68 dd be 80 86 0a be c1 ab 67 bd ed a8 a4 bd
       -0.4324393 -0.1352787 -0.05656028 -0.080400325
0002c0 5e 6c 47 be 7f c5 2b bf a8 a3 2b 3e 48 ee 35 bf
       -0.19474933 -0.6709823 0.16761649 -0.71066713
0002d0 d6 cb 71 be f9 92 23 be db b3 9c 3e eb 2e 07 be
       -0.23612913 -0.15974034 0.3060597 -0.13201492
0002e0 0a d6 9e 3d cd ee 23 3e 0a e5 85 bc a0 ec b3 be
       0.077556685 0.16009064 -0.016344566 -0.35141468
0002f0 af 8b e4 be 2f e6 3b 3e 05 e4 99 be c7 a5 5b 3e
       -0.4463782 0.18349527 -0.30056778 0.21449958
000300 7d 3f c7 bd 59 6f ff be ec 4e 72 bd a9 44 82 3d
       -0.09728906 -0.4988964 -0.059157297 0.06360752
000310 8c 97 9d 3e f3 f7 ff be 8f e9 82 be fd be 8f be
       0.30779684 -0.49993858 -0.25568816 -0.280754
000320 55 f2 73 be bd 95 60 be 3b 28 ec bd 1d 5a 30 be
       -0.23822911 -0.2193212 -0.11531111 -0.17221875
000330 83 65 c1 be 55 dd 7e bd 13 22 fb be 13 58 08 be
       -0.3777276 -0.062222797 -0.49049434 -0.13314848
000340 17 11 3f 3e 42 e4 92 be b9 66 f1 3d cb 58 99 be
       0.18658863 -0.28689772 0.11787171 -0.29950556
000350 14 22 aa be 34 13 f8 be e4 aa 74 3d 37 36 2c bf
       -0.33229125 -0.4845215 0.059733286 -0.67270225
000360 26 20 04 3e 2f 97 c8 3c 73 52 7f 3d c6 e1 b0 bf
       0.12902889 0.024486152 0.06233449 -1.38189
000370 f2 f1 21 bf 58 03 37 be b2 d7 2c bf 12 f2 43 be
       -0.63259804 -0.1787237 -0.67516625 -0.19135311
000380 df fe 5a 3e d4 c6 14 3e f4 bb 3a 3e c7 72 81 bf
       0.21386288 0.14528972 0.18235761 -1.0113152
000390 67 d6 9d 3e b6 35 6c bd b2 3b 79 3e 95 90 ff bd
       0.30827639 -0.05766841 0.24339178 -0.12478749
0003a0 96 69 4b 3e dd ab 0d 3e ed b0 7e 3d c2 ca 1b bf
       0.19864497 0.13835092 0.06218045 -0.6085626
0003b0 3d eb 71 3e 73 0a 4b 3e 02 ff d5 bd 68 62 cd 3e
       0.23624893 0.19828205 -0.104490295 0.4011414
0003c0 aa 19 8d bd c2 31 fd be 3a 8f 19 be d0 bb 9b 3c
       -0.06889661 -0.49452025 -0.14996043 0.019010454
0003d0 ef 50 ef be 42 17 6f bd 49 d2 c6 bd 23 12 e3 bd
       -0.46741435 -0.05837179 -0.097080775 -0.11087444
0003e0 9a 60 a5 be e7 85 e8 bd ee 17 32 be dc 0b 92 be
       -0.32300264 -0.11353665 -0.17391941 -0.28524673
0003f0 cb d2 8e bd 95 69 98 bc 3c 53 45 3e 8f 54 e8 bd
       -0.06973799 -0.018605033 0.19270033 -0.11344253

sequential/conv2d_2/Conv2D f4 [64, 3, 3, 32]
000000 c2 ec f7 3e 8e 76 1f be e4 9b 74 bd 61 b8 1f 3e
       0.4842282 -0.15572569 -0.05971898 0.15597679
000010 d2 cf af 3e c8 3b cd bc b3 f0 fe 3d c0 66 11 bf
       0.34338242 -0.02505292 0.124482535 -0.5679741
000020 45 69 58 3c 8b 5f 4a 3e f4 2f 61 3e 19 8d ca 3d
       0.013208692 0.19763009 0.21990949 0.098901935
000030 ed 88 17 3d 18 83 46 bd 4e 3f 28 be 39 36 a9 3d
       0.036995817 -0.048464864 -0.16430399 0.08262295
000040 ac d6 2d 3c ff 61 ae bd c5 08 f2 be e2 72 22 be
       0.010610264 -0.08514785 -0.47272316 -0.15864137
000050 c6 31 e6 bc 9c 75 05 3e 57 aa d9 3c 71 31 57 3e
       -0.028099906 0.13033146 0.026570482 0.21014954
000060 2c 3f 1b 3f f0 76 9c be 25 f9 d4 be 29 19 9b bd
       0.6064327 -0.30559492 -0.41596332 -0.07573158
000070 29 31 99 3e 48 95 bd be 6a 67 58 be 00 41 66 be
       0.2992032 -0.37027955 -0.211332 -0.22485733
000080 b9 96 6b 3d 24 bb 63 3d 78 48 a3 be 13 61 d5 3d
       0.057516787 0.055598393 -0.31891227 0.10418906
000090 08 b2 05 bd 00 74 66 3e 90 cb 2e 3d 99 d7 2e be
       -0.032640487 0.22505188 0.0426746 -0.17074431
0000a0 a8 7d f6 be 97 d6 5a be 99 fb c1 3e 82 9d 5b 3d
       -0.48142743 -0.21370922 0.37887266 0.053617008
0000b0 03 b8 8d be 1c 95 ca bd b0 b0 e6 3b 1f 8c e3 bd
       -0.27679452 -0.098917216 0.0070401058 -0.1111071
0000c0 c2 d8 97 bd 60 67 3f 3e bd d1 d1 bd a9 d8 02 bd
       -0.0741439 0.18691778 -0.102450825 -0.031944904
0000d0 4e 1f 23 be 03 a7 bb 3e 13 35 0b be 19 97 a1 3d
       -0.1592991 0.36650857 -0.13594465 0.07890148
0000e0 77 e7 4e be 0e b6 e0 bd 2e df 2a be c6 2e ba 3e
       -0.20205484 -0.10972224 -0.16686699 0.3636381
0000f0 d6 d7 1b 3e 27 ea f7 bd 5b 4f 3c be c5 52 30 3d
       0.15219054 -0.12105208 -0.18389647 0.043047685
000100 ce 29 56 3e e0 9f ba be 4e eb a0 3e 3d 08 8b be
       0.20914385 -0.364501 0.31429523 -0.27154723
000110 af e6 03 3f dc 67 75 bd f0 3f 62 be c0 47 49 3d
       0.5152387 -0.0599135 -0.22094703 0.04914069
000120 dc 82 00 be 80 aa 33 be 49 74 4e be 31 51 9f bc
       -0.12549919 -0.1754551 -0.20161547 -0.019447895
000130 c2 7c 93 3d e4 79 49 3e 9a c6 93 3e f6 d4 53 3c
       0.0720153 0.19675404 0.28862458 0.012929192
000140 57 de 87 3e 1b ee 0c be 12 8e 26 be 22 6e 96 3e
       0.2653682 -0.13762705 -0.16265133 0.293809
000150 15 d4 42 bd 0b 87 57 be 9c 07 8f be f3 09 34 be
       -0.04756554 -0.21047609 -0.27935493 -0.1758192
000160 22 6e 47 3e f6 61 20 3e 45 be 84 bc d2 91 64 3b
       0.19475606 0.15662369 -0.016204009 0.0034876955
000170 87 dc 8d 3e be 86 e6 3e e2 50 e5 bd 34 22 ec 3e
       0.27707312 0.45024675 -0.11197068 0.46119845
000180 69 64 55 bc 8b fe 8b be ec a5 90 3d 62 2e 35 bc
       -0.013024428 -0.27342638 0.07062897 -0.011058422
000190 72 f1 10 3c 64 96 20 be 94 c9 31 be e0 89 ca be
       0.008846628 -0.1568237 -0.17362052 -0.39558315
0001a0 28 74 0f be 3d 78 6b be e1 f5 83 3e c6 6c 04 3d
       -0.14009154 -0.22995086 0.25773528 0.032330297
0001b0 6c af 13 3e 52 56 bb be 11 eb 61 be d9 e0 ec be
       0.14422387 -0.36589295 -0.22062327 -0.46265295
0001c0 61 b4 9d b9 90 b7 41 3d 52 a4 9c be a6 f7 52 3e
       -0.00030079766 0.0472942 -0.30594116 0.20602283
0001d0 4d 3d 61 3e de c0 12 be 2b 12 2e be 07 32 93 bc
       0.2199604 -0.14331385 -0.16999118 -0.01796819
0001e0 87 36 e7 3b cb fb 32 be a1 4a 64 3d 69 7e 1d bd
       0.0070560607 -0.17478864 0.055735234 -0.038450632
0001f0 ea e7 17 3e 85 3c 6f be c0 ec c9 bd 0e f2 c0 3d
       0.14834562 -0.2336293 -0.098596096 0.09421168
000200 bc ba 8e 3d 72 8d 0e bf f0 48 09 bf 67 5c 2b 3e
       0.069692105 -0.5568458 -0.5362692 0.16734467
000210 3c c1 61 be c6 23 11 3d 2b 1e 82 3e 1b 71 81 bf
       -0.2204637 0.035434507 0.2541364 -1.0112642
000220 16 01 3d be fc b5 8c be 17 9f 1d 3e 4e 58 11 3e
       -0.18457446 -0.27482593 0.15392719 0.14193842
000230 a5 df b7 3d a8 5e 08 bd db d8 f7 bd 0c 46 19 bf
       0.08978204 -0.033293396 -0.12101909 -0.5987251
000240 b8 9b af be cf af 95 3e 4c 19 19 be fa 16 2a 3e
       -0.3429849 0.29235694 -0.14951056 0.16610327
000250 7f 7f a9 3e 9f 30 0c bf 43 f5 3b bd d2 68 c0 bd
       0.33105084 -0.5476169 -0.045888197 -0.09394993
000260 08 0b 7e 3d 99 1e 33 3e c3 3b 98 3d 61 ec eb bd
       0.06202224 0.17492141 0.07433274 -0.11519695
000270 6d 41 c2 bc 91 71 7f bf ff 8d a6 3e 85 10 b1 bd
       -0.023712838 -0.99782664 0.3253021 -0.08645729
000280 5e b3 81 3d 67 eb 35 bf 9d f0 2d be d6 39 93 be
       0.0633304 -0.7106232 -0.16986318 -0.28755063
000290 f0 62 cc be 17 02 d2 3d 46 c1 05 be 45 05 c6 ba
       -0.39919233 0.10254305 -0.13062009 -0.0015107772
0002a0 bd 93 11 be 83 6d b2 bd b7 e9 3f 3d 56 9f 18 bd
       -0.14216514 -0.08712294 0.046853747 -0.03726133
0002b0 47 d0 dd 3d 61 85 9c 3d a7 cc 04 bc a9 e7 a5 be
       0.108307414 0.076426275 -0.008105434 -0.32403305
0002c0 92 e8 19 be 46 65 9b 3e 6b db bf bc 18 44 94 3d
       -0.15030125 0.30350703 -0.023420056 0.0723955
0002d0 1f a2 3f bd e4 0d 8c 3e 62 3b b8 3d 16 98 d7 be
       -0.04678547 0.27354348 0.089957014 -0.4210822
0002e0 6f 47 91 3d c8 18 6d 3c e6 4a 80 3e 31 b8 20 3f
       0.07093703 0.01447124 0.25057143 0.62781054
0002f0 a7 88 2c be 10 8d 3a bf be 16 a8 3d 0b cd 00 3f
       -0.16849004 -0.72871494 0.08207463 0.5031287
000300 b0 14 4e be 39 5b 47 be a0 39 db be 8d 59 f7 3d
       -0.20125079 -0.19468392 -0.42817402 0.12077627
000310 5f 2d 06 3d 56 a9 e6 bd a3 ff 51 3d 85 17 b9 be
       0.032758113 -0.11262767 0.051269185 -0.36150756
000320 1d c3 4d 3e 0e ab 72 3e c1 9c 0e bf 72 b3 34 3e
       0.20093961 0.23698065 -0.5570794 0.17646578
000330 1d d0 53 3e f7 75 70 be f6 9b f0 bc 98 b1 99 3e
       0.20684858 -0.234825 -0.029371243 0.30018306
000340 1e a4 05 be f9 1b 1d 3e 18 4f b8 be 51 fe 1f 3e
       -0.13050887 0.15342702 -0.35997844 0.15624358
000350 15 5b 64 be 00 28 02 be e9 7e 83 3e 43 40 55 be
       -0.2230037 -0.12710571 0.25682762 -0.20825295
000360 ab 1f 40 3d bd e4 a2 bf 08 54 4d bf 97 9f 44 be
       0.0469052 -1.2726055 -0.80206347 -0.19201504
000370 a4 3b 2b 3d 92 ac e5 3d dc 7f 9e be cb ad e9 3e
       0.041804925 0.11214556 -0.30956924 0.45640406
000380 93 8b bc be 74 26 28 bf d9 92 8a bf b9 70 5f bc
       -0.36825237 -0.65683675 -1.0826064 -0.013637715
000390 39 ac f2 be d7 86 0d be e0 0c fc be 52 d4 03 bd
       -0.4739702 -0.13820969 -0.49228573 -0.032184906
0003a0 f3 5f fb bd c6 52 32 bf b7 9f aa be bc 57 3b be
       -0.1227416 -0.6965755 -0.33324978 -0.18295187
0003b0 25 68 83 3d 00 af a4 3e df 38 d8 bc c3 a4 ac be
       0.06416348 0.32164764 -0.026394306 -0.33719453
0003c0 38 dc 73 3e 9c ca ab 3e 4b c3 36 3e 78 45 71 3e
       0.23814476 0.33553016 0.17847936 0.23561656
0003d0 7d 45 0d 3e 9b a5 e9 be b7 3e eb 3c 03 64 cb be
       0.13796039 -0.4563416 0.028716428 -0.3972474
0003e0 44 6d 05 3e 59 0f 74 be 51 ff bd be bb 54 86 be
       0.13029963 -0.2383398 -0.37108853 -0.2623652
0003f0 e1 c9 e1 be 0e d3 db 3e c2 c0 8b 3d 69 ef 90 be
       -0.44099334 0.4293446 0.06823875 -0.28307655

sequential/dense/BiasAdd/ReadVariableOp f4 [128]
000000 53 56 bc be 6a d9 26 be 3b 78 8e be fc 89 66 bd
       -0.3678461 -0.16293874 -0.27826104 -0.056283936
000010 4a 42 1f bf 30 d5 5a be 14 c2 46 bd a2 40 b2 be
       -0.62210524 -0.21370387 -0.04852493 -0.34814936
000020 ac c6 82 be a0 e1 9d be 42 04 97 be 94 ce 36 bc
       -0.255422 -0.308362 -0.29495436 -0.0111576505
000030 f5 25 31 bd 7d d4 1a be 97 97 04 be 5a e3 0f bd
       -0.04324909 -0.1512012 -0.12948452 -0.03512893
000040 e6 99 02 bd 1d 98 49 be 99 fd 10 bf e7 be 19 be
       -0.03188505 -0.19686933 -0.5663696 -0.1501423
000050 d7 c8 fe bc fb 40 12 3b b9 fc 3d be d4 cf 31 be
       -0.031101627 0.0022316563 -0.18553437 -0.17364436
000060 3b 37 42 bc a2 63 18 3e c0 4e c1 bd f1 10 a3 3d
       -0.011853988 0.14881757 -0.094388485 0.07962216
000070 8c 68 95 bd 09 61 d6 be 82 c7 1e be a8 a0 83 be
       -0.07295331 -0.41870907 -0.15505794 -0.25708508
000080 e0 cc 94 bd 45 1f 1f be 03 6f bc be 24 27 ba be
       -0.07265639 -0.15539272 -0.36803445 -0.36357987
000090 f3 c0 07 3d 56 ea 0a be cd b5 82 be 95 45 87 bd
       0.033142995 -0.13565955 -0.25529328 -0.066050686
0000a0 be 0f 2f be 9c 21 17 bf 64 40 e7 be 5d d3 9c be
       -0.17095849 -0.5903566 -0.45166314 -0.30630007
0000b0 e5 3e cc be 4c a4 2f be ed 79 a5 be 4d 6e 29 be
       -0.39891735 -0.17152518 -0.32319584 -0.16545983
0000c0 42 b1 3d be 57 86 b2 be 67 b6 a4 be 7f ff 87 bc
       -0.1852465 -0.34868118 -0.32170412 -0.016601322
0000d0 fc 5c 9f be d7 20 2d be c9 a9 05 be d9 90 1c bd
       -0.3112563 -0.16907059 -0.13053049 -0.038224075
0000e0 ff f9 09 be ef f7 48 bd 48 36 dc be a6 a4 a8 be
       -0.13474272 -0.049064573 -0.43010163 -0.32938117
0000f0 f1 8f ae be 7e 08 07 3e d6 cc af bc a6 c5 26 be
       -0.34094194 0.13186833 -0.021459978 -0.16286334
000100 71 d4 f7 3d 4d 5a 9d bc e7 6f d9 be 5a 66 8f be
       0.12101067 -0.019208098 -0.42468187 -0.28007776
000110 dd 1d ca be 30 db 6e bd 67 a8 06 bd 2b 47 a6 bd
       -0.3947591 -0.058314502 -0.032875445 -0.08119043
000120 ab dd 05 be 0f 8d 8a 3c 71 01 75 be 24 ad 53 be
       -0.13072841 0.016912965 -0.23926331 -0.20671517
000130 cf 47 01 bf 4d 80 80 be da 09 8b be 77 d9 44 be
       -0.50500196 -0.25097886 -0.27155954 -0.19223581
000140 39 2c 3d be a0 63 c0 be 17 54 4b be 57 4a a9 bc
       -0.18473901 -0.37576008 -0.19856296 -0.02066533
000150 df 4d 4c bd 97 a2 77 3c 26 cb 9e be 0c 5f 67 3d
       -0.04987895 0.015114448 -0.31014365 0.05648713
000160 9b b3 1c be f1 13 be bd ef e3 b5 3c e8 da 77 be
       -0.15302889 -0.09281147 0.022203414 -0.242046
000170 fd 3a 3e bd 66 a4 d4 be 99 9b 14 bd e1 d1 83 be
       -0.046442974 -0.41531676 -0.036281202 -0.25746062
000180 06 9e bf be ea d6 bd bd cd f9 c9 bd 32 58 c6 be
       -0.3742525 -0.09269507 -0.09862099 -0.38739163
000190 1e fb 21 be 11 12 c1 be 78 11 0b 3d 0e 20 fe be
       -0.1581845 -0.37709096 0.033952206 -0.4963383
0001a0 d8 fb b7 bd 0a 0b 18 bd ef 1d 57 bd 2b fb b3 3d
       -0.08983582 -0.037119903 -0.05251878 0.08788141
0001b0 35 9b e5 bc bc 42 94 bd 07 04 41 be 24 3c 9c bc
       -0.02802811 -0.07239291 -0.18849193 -0.019071646
0001c0 d5 06 85 bd 5d 8e be be c2 6f 1d be 23 53 63 be
       -0.06495444 -0.3721799 -0.15374663 -0.22199683
0001d0 3f f6 b8 be ad 61 15 3e 2d 05 cc be df ba 53 be
       -0.3612537 0.14588042 -0.398477 -0.20676754
0001e0 ec 9d 06 bf 5d 8a 9f 3c d2 65 b9 be 0a 41 c9 be
       -0.5258472 0.019475156 -0.36210495 -0.39307433
0001f0 50 3c f9 bc b9 cc 1e bd 57 23 3d bd e3 ad eb be
       -0.030424267 -0.038769457 -0.04617628 -0.46031103

sequential/dense_1/BiasAdd/ReadVariableOp f4 [40]
000000 63 10 ad be 14 7d 42 be 2c 29 34 3e 50 a0 b4 3e
       -0.33801565 -0.18993026 0.17593831 0.3527856
000010 93 ea 21 be 3b 0f e3 3c 6f 0d 0d be 3f 83 14 3d
       -0.15812139 0.027717223 -0.13774656 0.03625798
000020 a0 fa 78 bd 7e 7d ca bd 03 45 e7 3d bf 75 14 bc
       -0.06078589 -0.09887217 0.1129246 -0.009061276
000030 69 cd 04 3e 83 e2 87 bd 27 df 30 bd e6 cc 0d 3e
       0.12968983 -0.066350006 -0.043181565 0.13847694
000040 3e 74 8d bd 7c 19 24 3e 8a 9c 9f be 23 ca 60 bd
       -0.06906937 0.16025347 -0.31174117 -0.054880273
000050 8a ad 83 3d 86 82 87 bd eb 71 8e 3d 37 9e d8 3d
       0.06429584 -0.06616692 0.06955322 0.10577052
000060 73 82 7d bd 53 2c e5 bb 11 16 0c 3e e1 09 0c 3b
       -0.061891984 -0.0069938092 0.13680293 0.0021368193
000070 28 fb 63 be 9c 70 01 be a0 84 9a 3d 90 98 53 be
       -0.22263777 -0.12640613 0.075448275 -0.20663667
000080 b5 b8 64 3d d5 2d 10 3d 29 64 24 be 5e 29 f9 bd
       0.055840213 0.03519996 -0.16053833 -0.12166093
000090 88 c1 74 3b b8 dd e2 bd 74 07 6d 3d 54 67 38 3d
       0.00373468 -0.11077446 0.057868436 0.045020416

sequential/dense/MatMul f4 [128, 1600]
000000 0b 16 57 3e e8 8f c6 be d2 14 b8 bc 5d ae b3 3e
       0.21004502 -0.38781667 -0.022470865 0.35093966
000010 e0 74 ee bd 8d 1b 5e 3c a7 33 2c 3e 85 2b 89 bd
       -0.11643386 0.013556373 0.16816579 -0.06697754
000020 7e 9e ed 3c bf 90 32 bd b6 e6 28 3e 5d 5d 4f be
       0.029006239 -0.043595072 0.16494259 -0.20250459
000030 3e b8 e8 3e 02 e6 73 3e 8d f2 a4 3a 4c b0 1e be
       0.45453066 0.2381821 0.0012584493 -0.1549694
000040 67 38 ad 3d f8 72 64 bd ac 7d c4 bb a6 e3 d1 be
       0.084580235 -0.055773705 -0.0059964266 -0.40993994
000050 42 d2 c4 bb 56 29 07 be 0b 9a 3c bd 86 a3 c2 3c
       -0.00600651 -0.13199362 -0.046045344 0.023759615
000060 57 cc 89 bd e3 fc a4 3d a2 86 f0 bc b7 3d a0 bd
       -0.06728428 0.08056047 -0.029361073 -0.07824271
000070 d9 cb 14 bb 78 8c 45 be 3d a7 a9 bd 1b 03 c3 3e
       -0.002270451 -0.19291866 -0.08283851 0.38088307
000080 c3 46 29 3e 9f 19 38 3d ed 2e bf 3c 51 00 4d 3e
       0.165309 0.04494631 0.023337806 0.20019652
000090 ab bc 89 3a e6 0a 9d 3e ac df 52 be ca 96 11 bd
       0.0010508498 0.30672377 -0.20593137 -0.035544194
0000a0 ef 57 91 bd 02 60 22 be d7 78 ce 3d 23 b9 32 3e
       -0.0709685 -0.15856937 0.10081642 0.17453437
0000b0 80 c0 dd 3e 54 98 5f 3d 2b 75 9e 3e 23 50 21 3e
       0.43310928 0.05458863 0.30948767 0.15753226
0000c0 66 70 d0 bc d6 c1 91 3d 3d f1 1c 3d 38 03 c9 bc
       -0.02544422 0.071170494 0.038316 -0.024537668
0000d0 7b 85 e6 3d 05 f0 4f 3b 94 be 50 3e 7a 25 da bb
       0.11255928 0.0031728756 0.203852 -0.0066572996
0000e0 01 1c 53 bd 88 d8 60 3e d8 c9 a5 be 0c 5d 96 3e
       -0.05154038 0.219576 -0.32380557 0.29367864
0000f0 15 39 98 3c 47 0b 41 3e e6 56 b2 3e 60 fd 27 3c
       0.018581906 0.18851958 0.34831923 0.01025328
000100 e2 e0 40 3d da 3b 14 bd f3 89 df 3d 1f 7e 11 be
       0.047089465 -0.03618989 0.109149836 -0.14208268
000110 93 37 01 bd 47 b6 0e 3e 7b 0e b9 bd 70 ef b6 3d
       -0.03154714 0.13936721 -0.09035965 0.08932388
000120 a4 6a 36 be 8f e1 5a 3d a6 a2 a3 bd 64 ec 28 be
       -0.17814118 0.053437766 -0.07990007 -0.16496426
000130 ca a4 35 3e 6e 92 37 3e 77 3e 0c bd e7 03 d9 3d
       0.17738643 0.17926952 -0.03423926 0.105964474
000140 92 73 1c bd a7 1b 22 bc 90 67 48 bd a3 55 ac be
       -0.038196154 -0.009894288 -0.04892689 -0.33659086
000150 dd 03 1d 3c 8f d8 e6 3d 25 fb 74 be 1b 46 03 bb
       0.009583441 0.11271774 -0.23923929 -0.00200308
000160 b0 05 ba 3e 0c 27 0c be 62 3b ab 3c 8b 10 00 be
       0.36332464 -0.1368677 0.02090234 -0.1250631
000170 f7 1e 4a 3e d1 9d 91 3b 42 d2 30 3c f1 d9 7d be
       0.19738375 0.004443862 0.010792317 -0.2479017
000180 35 0c f8 3d 18 63 7a be 29 b3 e9 3c 35 de a5 3d
       0.12111703 -0.24451864 0.028527813 0.08099023
000190 9a ab 47 be bf 64 30 3e f1 85 56 3c 61 bf ce 3c
       -0.19499055 0.17225932 0.013093458 0.025237741
0001a0 b2 a7 3e 3e 4e b4 cb 3d 3c c2 3f bd 33 32 73 3d
       0.18618658 0.099465 -0.046816096 0.059374046
0001b0 e4 3d 8c 3e 22 74 0c 3d 26 5d 5e bd cd c0 67 3d
       0.2739097 0.03429044 -0.054288052 0.056580354
0001c0 09 12 3d 3d 45 e4 aa 3d d0 e2 fa bd 52 95 ca bd
       0.046159778 0.0834432 -0.12250292 -0.09891762
0001d0 c3 28 67 be 20 f0 77 be 7c f8 05 bd 66 16 85 be
       -0.22574143 -0.24212694 -0.032707676 -0.2599365
0001e0 c6 b1 0d 3d 27 6b 75 bc 0d bc 86 be aa db 3b bc
       0.034593366 -0.01497916 -0.26315346 -0.011465946
0001f0 14 ac f4 bd 2d 6e fe 3d 1d 53 d4 bd 85 5c 5b 3c
       -0.11946884 0.12423358 -0.10367415 0.013388758
000200 d6 19 4f 3e 13 ae 94 3c 34 c8 b9 3d bc 80 93 be
       0.202247 0.018149411 0.09071389 -0.28809154
000210 9f 34 75 3e 7c 7c 42 bc ef 26 5f 3d 2c 4d 02 be
       0.23945855 -0.0118705 0.05448049 -0.12724751
000220 de f5 92 be 14 2b 04 3c 07 dc 36 be ed 05 41 be
       -0.28703207 0.008066911 -0.17857371 -0.18849917
000230 cd 34 32 be dd 57 5d 3e cf 77 b4 3c dc 61 a1 3d
       -0.17402954 0.21615548 0.022029785 0.07879993
000240 f6 e2 20 3e 78 de 1a 3e d8 b6 b7 bb 24 59 6e 3e
       0.15711579 0.15123928 -0.0056065135 0.23276192
000250 0c 84 c1 bc b4 35 bc 3d f9 8b 30 3e ed 4a 3a 3d
       -0.023622535 0.091899306 0.17240895 0.04548161
000260 b8 52 16 3d 9a 1a 2d 3c 55 40 d6 3c 59 8d e6 bd
       0.03669998 0.010565424 0.026153723 -0.11257429
000270 a8 29 2f bc 9e a6 9e bd 63 51 0b 3b 2f 1e 8c bd
       -0.010691084 -0.077466235 0.0021258227 -0.068416946
000280 87 51 1c be ce c4 a7 bd 58 cd 75 bd b7 ab 2e 3e
       -0.15265475 -0.081918344 -0.060010284 0.17057692
000290 d1 e3 a4 be e3 f4 ee 3d 60 05 64 bc fb e9 68 bc
       -0.3220506 0.11667802 -0.013917297 -0.014215942
0002a0 5f 33 4d 3e 83 a8 68 be e2 d4 85 bd 32 02 61 3e
       0.20039128 -0.22720532 -0.06534745 0.21973494
0002b0 8e 46 60 3e 98 ba cd 3d c3 ae 4a 3e e5 6e e3 bd
       0.21901914 0.100453556 0.19793229 -0.11105136
0002c0 e3 97 54 3d 18 55 89 3e 3c 3a 37 3e 56 cb b6 3d
       0.051902663 0.26822734 0.17893308 0.08925502
0002d0 08 4f b0 be d8 80 90 be bf cd 1f be 80 11 80 bd
       -0.34435296 -0.282233 -0.1560583 -0.06253338
0002e0 cc 32 24 be 92 a0 5b 3d ad bd 8b bc a0 cb 52 3d
       -0.16035002 0.05361993 -0.017058218 0.051463723
0002f0 c2 ab 3c be 87 c0 27 3e 5f 55 77 3e b2 63 24 3c
       -0.18424895 0.16382037 0.2415366 0.010033535
000300 e7 29 a0 3d 96 f6 30 3c 79 d4 a3 ba 1d 88 17 be
       0.07820492 0.010800978 -0.0012499235 -0.14798017
000310 ef be 9c bc 8b 3b b0 ba 3c 27 d7 3c eb 56 cb bc
       -0.019134013 -0.001344548 0.026263826 -0.02482172
000320 20 52 88 3d 62 52 6e bd 94 92 c6 bd 88 52 93 be
       0.06656289 -0.058184035 -0.09695926 -0.28773904
000330 00 4c 1a be 40 a2 cd 3c 23 82 28 3d 10 a2 ce bc
       -0.15068054 0.02510178 0.041139733 -0.025223762
000340 d0 0f 01 3e 33 57 29 3c ef cc 49 3e 3f 7b 44 3e
       0.12603688 0.010335731 0.19707082 0.1918764
000350 27 54 1a 3d c9 a1 ce 3e 16 01 62 bd 6c 21 d6 bc
       0.03767791 0.40357807 -0.055176817 -0.026138984
000360 a0 2b 01 3e f3 65 72 3d 95 a7 88 bc a5 0e 67 3d
       0.12614298 0.059179258 -0.016681472 0.05641045
000370 bd 3e 06 bd ad a2 c1 3c 7d 98 a1 bd 99 06 a2 3e
       -0.032774676 0.02363714 -0.07890413 0.3164566
000380 2e eb 50 3e e2 ec 3f 3e 44 c4 98 bd 24 5f c4 bd
       0.20402214 0.18742707 -0.0745931 -0.09588459
000390 2a 31 62 3e 53 d2 fc bd 41 c6 5e be 74 f8 32 bc
       0.22089067 -0.12344804 -0.21755315 -0.010923494
0003a0 a7 da 5a bd fd df f9 3d 3b e1 d8 be 32 c8 e2 be
       -0.05343118 0.122009255 -0.42359337 -0.44293362
0003b0 11 38 cc be 3b 0f 46 3e 2e 88 67 3e cc 65 cf bd
       -0.39886525 0.19341747 0.22610542 -0.10126838
0003c0 8b 80 4f bd 92 bf 7e 3e f9 74 f9 bd cd 39 3f 3e
       -0.050659698 0.24877766 -0.12180514 0.18674393
0003d0 ca f7 6d 3d 00 2f 86 3d 9d 75 ed be ae 8b 36 bc
       0.05809764 0.06551933 -0.46378794 -0.011141701
0003e0 20 4c fd be b1 51 82 be 58 a1 90 bd a7 05 ab 3c
       -0.4947214 -0.2545295 -0.07062024 0.020876719
0003f0 9f 8e 3c be b5 1b 5e be dc 7f 2b bc 6f df 5d 3d
       -0.1841378 -0.21690257 -0.010467496 0.05416816

sequential/dense_1/MatMul f4 [40, 128]
000000 af 13 d9 be b6 c3 73 3d 32 21 91 be c7 6e 09 be
       -0.4239783 0.059512816 -0.2834564 -0.13421164
000010 8e c9 a4 be 29 bb c9 be 1e d0 ed 3d 67 e2 0d bf
       -0.32185024 -0.39400604 0.11611961 -0.5542359
000020 c5 ce d0 bc 46 d6 8b bd 76 36 49 3e f0 18 21 be
       -0.02548922 -0.06827979 0.19649681 -0.15732169
000030 2e de 08 3e 5e c5 e3 bd ff b4 e7 be 96 98 bb 3d
       0.13366005 -0.11121629 -0.45255277 0.09159963
000040 2f f5 33 3e 2f 7c 54 be 21 e4 e1 3d 90 66 3c bf
       0.17573999 -0.20750497 0.1102984 -0.73594
000050 35 4d d3 3d fc 21 3b bd c1 45 ec be 75 f7 b1 3d
       0.103174604 -0.045686707 -0.46146968 0.08689777
000060 f4 2c ff bc b1 ee 0f be 30 d9 85 3d d8 13 1f be
       -0.031149365 -0.14055897 0.06535566 -0.15534914
000070 cb 3d bc be 42 67 95 bb ef 6f 81 3e 9f 56 c2 be
       -0.36765894 -0.0045594284 0.2528071 -0.37956712
000080 64 67 3f be 3e 1f ab 3e 32 76 c8 be 56 82 39 3e
       -0.18691784 0.33422273 -0.39152676 0.18116125
000090 ca e7 dd be eb 0f 78 3e f5 60 44 3e f8 91 17 be
       -0.43340904 0.24224822 0.19177611 -0.14801776
0000a0 31 d6 08 bf fd 2f 84 bc c0 77 ed be 73 77 06 3e
       -0.5345183 -0.016136164 -0.46380424 0.13131504
0000b0 5c 3c 0b bf c3 a2 35 bc e9 26 8c 3d d6 7f d1 3d
       -0.54388976 -0.011086169 0.06843359 0.10229461
0000c0 10 d5 e6 be 5f 53 95 3e d7 cb 28 3e 05 7b ad 3e
       -0.4508443 0.2916517 0.16484009 0.3388292
0000d0 32 9e 40 bf 28 77 0d 3e b9 9b 95 be e1 54 2d be
       -0.75241387 0.13814986 -0.2922037 -0.1692691
0000e0 ee 78 96 bf a2 a2 29 be 0b ec 7d 3e 2a ac 24 bf
       -1.1755655 -0.16565946 0.24797074 -0.643252
0000f0 85 64 34 3e 43 dd ba bb e5 58 45 bc 00 f3 65 3d
       0.1761647 -0.005702646 -0.01204512 0.056139946
000100 fb e1 9a bd cf f1 71 bd 0e eb 2e bf 73 99 07 3e
       -0.075626336 -0.059068497 -0.68327415 0.1324213
000110 8f 1d 3e be e1 20 9b bd d9 cb 98 3d 07 75 de be
       -0.18565963 -0.075746305 0.07460756 -0.4344866
000120 ef d1 2f be 57 88 01 bd 04 c5 f3 bd 1c c0 c1 3d
       -0.17169927 -0.031624164 -0.11902812 0.0946047
000130 78 e1 65 3d 7a 74 8c be 1c 97 5f 3e 3d 40 e4 bd
       0.056123227 -0.27432615 0.21834987 -0.11145065
000140 a1 d0 20 3e f2 5c 44 bf ac eb 7e 3d d9 e7 17 be
       0.15704586 -0.76704323 0.062236473 -0.14834537
000150 00 6a 29 be a3 95 3a bf b8 fc a3 be 80 d5 4a be
       -0.16544342 -0.7288458 -0.32028747 -0.19808006
000160 0e 3f 2d be 77 e1 9f be f7 1d 51 bf ea ba b8 bd
       -0.16918585 -0.31226704 -0.8168635 -0.09020026
000170 ab de 31 3e 79 6a f7 be 10 c2 ef bd d8 60 15 be
       0.17370097 -0.4832342 -0.11706936 -0.14587724
000180 f9 41 e7 bd 19 da 5d 3e 19 8d 5a bf 4f 41 e4 be
       -0.1129188 0.21665229 -0.8537155 -0.44581077
000190 f0 8d bd 3d 8e 5b d1 be 8a 8a 40 3e 6f 6e 96 be
       0.09255588 -0.40890163 0.18802848 -0.2938113
0001a0 63 ca 2b bf 71 e6 cb bd bc c1 f4 3b 65 c9 0e bf
       -0.6710569 -0.099560626 0.007469384 -0.55776054
0001b0 a3 a5 f2 3c 63 5f 07 be c3 36 c3 3c 4a 91 13 3e
       0.029619997 -0.13219981 0.023829823 0.14410892
0001c0 65 95 fb 3c fd 18 9e be e4 8d f6 bd f9 5c 18 bd
       0.030710885 -0.3087844 -0.12038782 -0.03719804
0001d0 35 20 52 3e 2a 95 30 be d6 64 b6 3d 9b 5c a7 be
       0.20520099 -0.17244402 0.08905952 -0.3268784
0001e0 b9 93 b1 3e 37 d6 c2 be e9 39 08 bd e2 aa e7 3d
       0.34683016 -0.38054058 -0.033258352 0.1131189
0001f0 74 a3 a8 3d 12 27 6e bd 2d 35 cb bd 7d 90 30 be
       0.08234301 -0.05814273 -0.09922252 -0.17242618
000200 62 a4 b6 be 82 0a ea bd 9a 1f 4f 3d 6c fd 33 3d
       -0.3567229 -0.114277855 0.050567247 0.043942854
000210 34 de 12 be a8 d7 9b 3d 80 d8 8e bd 0c c8 0b be
       -0.14342576 0.076094925 -0.06974888 -0.1365053
000220 d8 4f a7 3e a8 2b 0f bf 6b fc 49 bf a6 de a2 3d
       0.32678103 -0.5592599 -0.78900784 0.07952623
000230 43 92 e9 3d 38 d9 d9 be e9 dc c5 bd 23 3a c4 be
       0.1140485 -0.42548537 -0.09661276 -0.38325605
000240 da 2d 03 be 5f 9f 22 bc 7f 99 00 bf 80 6d 15 bd
       -0.1281046 -0.009925692 -0.50234216 -0.03648138
000250 72 e1 04 3e ad 6c 37 3e 53 8d 9e bd 19 0d 0a 3e
       0.12976626 0.1791255 -0.07741799 0.13481559
000260 ea 0d 07 be ca 4a e8 bc 38 15 20 3e 8e 76 ad bd
       -0.13188902 -0.028355975 0.15633094 -0.08469878
000270 e1 28 86 3e 3e c6 9e 3d 92 3e b7 3d 53 7d a3 bf
       0.26203063 0.077526554 0.08947481 -1.2772621
000280 67 ba 06 3e 70 a5 cc be 18 7f 40 bf a9 76 5f bf
       0.13157044 -0.3996997 -0.7519393 -0.87290436
000290 18 d3 9c 3c b7 df eb 3e be ac b6 be 6f 00 da be
       0.019143626 0.46069118 -0.35678667 -0.42578456
0002a0 17 4c 82 3e 0b 15 3d bf 85 a2 93 3d 62 d5 b0 3e
       0.25448677 -0.73860234 0.072087325 0.34537798
0002b0 c1 96 6d bd d1 39 c1 bd 1e 4a 87 3e 0e fc 99 3d
       -0.0580051 -0.09434856 0.26423734 0.07518779
0002c0 37 75 b6 be fa d1 b8 3c fd 61 90 bd 72 11 72 bf
       -0.35636303 0.022561062 -0.0704994 -0.9455787
0002d0 62 7d 8d be 40 6b a7 3d b8 ed 14 bf ee 91 cc 3d
       -0.27634722 0.08174753 -0.5817523 0.099887714
0002e0 0c d9 7a be 0e b7 d2 3d c5 be a2 bf 41 79 01 bf
       -0.2449686 0.10288821 -1.2714468 -0.50575644
0002f0 8d b4 16 bf aa 31 8a 3e dd ce 10 be 7f 29 7e be
       -0.5886925 0.26991016 -0.14141412 -0.24820517
000300 fb 7c 68 3c 23 ae 23 bd f3 c1 66 3e 86 38 c5 bf
       0.014189954 -0.03996099 0.22534923 -1.5407875
000310 11 e4 ed 3e a1 c8 0d be 74 b7 27 3e 33 23 2d bf
       0.46463063 -0.13846065 0.16378576 -0.67631835
000320 d6 52 e6 bd 85 4a 07 bf cc 17 de be 7f 90 b2 3c
       -0.112462685 -0.5284808 -0.4337753 0.021797417
000330 a1 bf 9f be 7a a5 3b be 4b d8 09 bf df 41 7b bf
       -0.3120089 -0.18324843 -0.5384566 -0.98147386
000340 24 68 02 3e 63 57 80 3e c6 01 56 bf 11 4c 36 be
       0.12735039 0.2506667 -0.83596456 -0.17802455
000350 95 d5 8d be 79 69 cc be bb e2 2d be 7d 63 71 3e
       -0.27702013 -0.3992422 -0.16981022 0.23573108
000360 4e 6f 95 bf b7 71 1d bf 7f 3c 8a 3e 67 87 17 be
       -1.1674592 -0.6150164 0.2699928 -0.14797746
000370 54 76 36 be f4 b0 7e 3e 2a 57 fe 3b a1 5a 2d bf
       -0.17818576 0.2487219 0.0077618556 -0.67716414
000380 33 60 0c bf 40 16 d0 3d 83 0d 88 be c9 30 10 3f
       -0.5483429 0.10160494 -0.2657281 0.5632444
000390 16 06 e7 bd 0c e6 3f be 0a 98 ea 3d 10 60 d3 bd
       -0.11280458 -0.187401 0.114547804 -0.10321057
0003a0 4a 3e 82 bd e0 a2 bb bc 99 63 3b 3e 36 08 6b be
       -0.06359537 -0.022904813 0.18299712 -0.22952351
0003b0 b7 4b c4 bb 2c 8f 69 3c 0b f3 9b be ca a5 ed 3d
       -0.005990471 0.014255326 -0.30458865 0.116038874
0003c0 4e 54 ba bd 33 db 51 bf d2 a9 36 bf 35 76 10 bd
       -0.09098111 -0.81975096 -0.71352875 -0.03526898
0003d0 9e 13 05 bd d9 a4 04 3e f3 1a 53 be 79 6f 87 bc
       -0.03248941 0.1295351 -0.20615749 -0.016532646
0003e0 e6 a3 51 bf 05 d4 8a 3d d9 84 3d be e0 36 97 be
       -0.81890714 0.06778721 -0.18507709 -0.29534054
0003f0 14 65 be 3d e4 85 01 3d 1b f5 c0 3c b3 e9 75 be
       0.09296623 0.03162183 0.023554375 -0.2401493
